live_tracker/.dart_tool/chrome-device/Default/optimization_guide_prediction_model_downloads/e599cfd9-cc13-4c8d-8d38-55a416d790c8/model.tflite (tflite, 498468 bytes, 160 tensors)

context_transformer_0/bottleneck_input/norm/add;StatefulPartitionedCall/context_transformer_0/bottleneck_input/norm/add;context_transformer_0/bottleneck_input/dense/einsum/Einsum;StatefulPartitionedCall/context_transformer_0/bottleneck_input/dense/einsum/Einsum;context_transformer_0/bottleneck_input/norm/mul;StatefulPartitionedCall/context_transformer_0/bottleneck_input/norm/mul;context_transformer_0/bottleneck_input/dense/add;StatefulPartitionedCall/context_transformer_0/bottleneck_input/dense/add;12614;12616;12618 f4 [32]
0	0xbdbfae35	-0.09359399
1	0xbddbeba4	-0.10738304
2	0xbe93e97d	-0.28889075
3	0xbdc6e679	-0.09711928
4	0xbe2a38e2	-0.16623262
5	0xbc0bd090	-0.008533612
6	0x3e0ec26a	0.1394135
7	0x3c23ce2a	0.009997884
8	0x3e76f0f4	0.24115354
9	0xbbc8b8de	-0.0061255535
10	0xbca2eee3	-0.0198893
11	0xbdf2a771	-0.11848343
12	0x3e8b7668	0.27238774
13	0x3e122328	0.14271224
14	0xbe06a578	-0.13149059
15	0xbcf2d7f0	-0.029643983
16	0x3e883348	0.26601624
17	0xbcf94e86	-0.03043295
18	0xbd88d4ed	-0.06681237
19	0xbd4ea2b6	-0.050448142
20	0xbca92d7c	-0.020651571
21	0x3d9c7a79	0.07640547
22	0x3da7f3be	0.08200787
23	0xbd8d10ea	-0.06887992
24	0x3cf4f7ee	0.029903378
25	0xbe73103b	-0.2373666
26	0xbec645a4	-0.38725007
27	0xbe45973d	-0.19295974
28	0x3d2db94a	0.042413034
29	0x3db37075	0.08761684
30	0x3caade50	0.02085796
31	0xbca50206	-0.020142566

context_transformer_1/bottleneck_input/norm/add;StatefulPartitionedCall/context_transformer_1/bottleneck_input/norm/add;context_transformer_0/bottleneck_input/dense/einsum/Einsum;StatefulPartitionedCall/context_transformer_0/bottleneck_input/dense/einsum/Einsum;context_transformer_1/bottleneck_input/norm/mul;StatefulPartitionedCall/context_transformer_1/bottleneck_input/norm/mul;context_transformer_1/bottleneck_input/dense/add;StatefulPartitionedCall/context_transformer_1/bottleneck_input/dense/add;context_transformer_1/bottleneck_input/dense/einsum/Einsum;StatefulPartitionedCall/context_transformer_1/bottleneck_input/dense/einsum/Einsum;12706;12708;12710 f4 [32]
0	0xbd4d3718	-0.05010137
1	0xbd8e9a00	-0.06962967
2	0xbd0c3db8	-0.034238547
3	0xbd5de8c0	-0.054177046
4	0xbc49a3c3	-0.01230711
5	0xbda4bf4d	-0.080443
6	0xbc57d1a4	-0.013172541
7	0xbdd7a993	-0.105303906
8	0xbe3ff8e2	-0.18747285
9	0xbd8e0f62	-0.06936528
10	0xbda01170	-0.07815826
11	0x3cda9f93	0.026687419
12	0xbdef889b	-0.11695977
13	0x3c9d1860	0.019176662
14	0x3cafa3a4	0.021440335
15	0xbe06961e	-0.13143203
16	0xbd94ff1a	-0.07275219
17	0x3edd5931	0.4323211
18	0x3e4c82e8	0.19971812
19	0xbe0e4d0a	-0.13896576
20	0xbd4174ba	-0.04723046
21	0xbd058118	-0.032593817
22	0x3cb5f90e	0.022213485
23	0xbd553f60	-0.052062392
24	0xbd0ef761	-0.034903888
25	0xbafa37df	-0.0019090137
26	0xbd2fb44c	-0.042896554
27	0xbae8348d	-0.0017715857
28	0xbd008c3e	-0.031383745
29	0xbdbaed9a	-0.0912735
30	0x3d96648a	0.07343395
31	0x3d6b9cd0	0.057522595

mention_transformer_0/bottleneck_input/norm/add;StatefulPartitionedCall/mention_transformer_0/bottleneck_input/norm/add;sequential_1/dense_3/Tensordot/shape;StatefulPartitionedCall/sequential_1/dense_3/Tensordot/shape;mention_transformer_0/bottleneck_input/norm/mul;StatefulPartitionedCall/mention_transformer_0/bottleneck_input/norm/mul;mention_transformer_0/bottleneck_input/dense/add;StatefulPartitionedCall/mention_transformer_0/bottleneck_input/dense/add;mention_transformer_0/bottleneck_input/dense/einsum/Einsum;StatefulPartitionedCall/mention_transformer_0/bottleneck_input/dense/einsum/Einsum;12810;12812;12814 f4 [32]
0	0x3d8c0916	0.068376705
1	0xbe683e45	-0.22680004
2	0x3dc4805a	0.095947936
3	0x3d7632d1	0.060107056
4	0xbe22a8aa	-0.15884653
5	0x3c471386	0.012150651
6	0x3eabf502	0.33585364
7	0xbd09e038	-0.033661097
8	0xbe321c68	-0.17393649
9	0xbd5e2406	-0.054233573
10	0x3e33a61e	0.17543837
11	0x3ce10ff0	0.02747342
12	0x3b094179	0.0020943566
13	0xbc75f794	-0.0150126405
14	0x3e2657ce	0.16244432
15	0x3e32ea4f	0.17472194
16	0x3e21f58c	0.15816325
17	0x3e1d51bc	0.1536321
18	0x3d02acc9	0.031903062
19	0x3dad021d	0.08447669
20	0x3cbf1914	0.023327388
21	0xbd2f39fe	-0.042779915
22	0x3d7cca36	0.06171628
23	0x3e463524	0.19356209
24	0x3dfa50e8	0.12222463
25	0xbd8dfd25	-0.06933049
26	0xbdbb33ac	-0.09140715
27	0x3d091f16	0.03347691
28	0xbcc9f660	-0.024653614
29	0x3d1ca961	0.03824747
30	0x3d190de4	0.037366763
31	0xbdca761c	-0.09885809

mention_transformer_1/bottleneck_input/norm/add;StatefulPartitionedCall/mention_transformer_1/bottleneck_input/norm/add;sequential_1/dense_3/Tensordot/shape;StatefulPartitionedCall/sequential_1/dense_3/Tensordot/shape;mention_transformer_1/bottleneck_input/norm/mul;StatefulPartitionedCall/mention_transformer_1/bottleneck_input/norm/mul;mention_transformer_1/bottleneck_input/dense/add;StatefulPartitionedCall/mention_transformer_1/bottleneck_input/dense/add;mention_transformer_1/bottleneck_input/dense/einsum/Einsum;StatefulPartitionedCall/mention_transformer_1/bottleneck_input/dense/einsum/Einsum;12902;12904;12906 f4 [32]
0	0xbd909630	-0.07059896
1	0x3cd69bb8	0.0261973
2	0x3c8b0244	0.016968854
3	0xbcc952a3	-0.024575537
4	0xbceba154	-0.02876345
5	0xbd73d188	-0.059525996
6	0xbe4e1f5c	-0.2012915
7	0xbddbcbb0	-0.1073221
8	0x3e3544d2	0.17702034
9	0xbe530f06	-0.206112
10	0x3bab2f73	0.0052241622
11	0x3e9c2c14	0.3050238
12	0xbe207337	-0.15668951
13	0xbdfb1dc9	-0.122615404
14	0xbda2be96	-0.07946508
15	0xbc584b2e	-0.013201518
16	0xbd885d81	-0.066584595
17	0x3d038476	0.032108746
18	0x3cfd435e	0.030915912
19	0x3de4ca7c	0.11171433
20	0x3d767738	0.06017229
21	0x3dc5fc37	0.09667247
22	0xbdd78996	-0.10524289
23	0x3d9a5182	0.07535078
24	0x3d5477b2	0.051871963
25	0xbc45f388	-0.012081988
26	0x3c0840a9	0.008316197
27	0x3ddd548a	0.1080714
28	0xbe1394fa	-0.14412299
29	0xbdb42fe0	-0.08798194
30	0xbd8ff481	-0.07029057
31	0x3dc959ba	0.09831567

context_transformer_0/attention/value/add;StatefulPartitionedCall/context_transformer_0/attention/value/add;context_transformer_0/attention/value/einsum/Einsum;StatefulPartitionedCall/context_transformer_0/attention/value/einsum/Einsum;12638 f4 [32]
0	0x3e516db7	0.20452009
1	0x3b35b33b	0.0027725238
2	0x3e40f79c	0.18844455
3	0xbe27a6ec	-0.1637227
4	0xbe260ef2	-0.16216639
5	0xbe6a7385	-0.2289563
6	0xbdfbad05	-0.1228886
7	0xbe19ee85	-0.15032394
8	0x3e863601	0.26213077
9	0x3e779135	0.24176486
10	0xbe75f5cc	-0.24019545
11	0x3e37ecda	0.17961445
12	0x3d93109a	0.07180901
13	0xbed61731	-0.4181457
14	0x3e9648ea	0.29352504
15	0xbddf389a	-0.10899468
16	0x3e126ce5	0.14299352
17	0x3d8b0ea9	0.067899056
18	0x3ea459f1	0.3209987
19	0x3e1d2d72	0.15349367
20	0xbdadf4ab	-0.08493932
21	0x3e2edca4	0.17076355
22	0x3e1f6a7a	0.15567961
23	0x3e745aa0	0.23862696
24	0xbd675901	-0.056481365
25	0x3dc896a6	0.09794359
26	0x3ce40076	0.027832251
27	0xbd9de94a	-0.07710512
28	0x3ded698f	0.11592399
29	0xb8929743	-6.989997e-05
30	0xbdd4f9da	-0.10399218
31	0x3e3d442b	0.18483035

context_transformer_0/bottleneck_input/norm/mul;StatefulPartitionedCall/context_transformer_0/bottleneck_input/norm/mul;context_transformer_0/bottleneck_input/dense/einsum/Einsum;StatefulPartitionedCall/context_transformer_0/bottleneck_input/dense/einsum/Einsum;context_transformer_0/bottleneck_input/dense/add;StatefulPartitionedCall/context_transformer_0/bottleneck_input/dense/add;12614;12616 f4 [32, 32]
0	0xbc6d88df	-0.014497965
1	0xbd31c541	-0.043401007
2	0xbeffac24	-0.4993602
3	0xbeb1b3e3	-0.34707555
4	0x3e00a2f1	0.12562157
5	0xbc14c892	-0.009081023
6	0xbe90ea4f	-0.28303763
7	0xbe342d6a	-0.17595449
8	0x3ed370a1	0.41296867
9	0xbd46d44f	-0.048542317
10	0xbda536e8	-0.08067113
11	0x3dabeb0a	0.083944395
12	0x3ee80523	0.4531642
13	0x3ea607ea	0.32427913
14	0x3f655446	0.89581716
15	0x3db05f57	0.08611935
16	0x3ebd0607	0.3691866
17	0x3d9a5f5b	0.07537719
18	0x3d420887	0.047371414
19	0x3e1cd5d6	0.15315947
20	0x3d2e8746	0.042609476
21	0x3e3abec6	0.18236837
22	0xbeb374c4	-0.35050023
23	0xbca5fa64	-0.020260997
24	0xbe5558e5	-0.20834692
25	0x3e012d77	0.12615
26	0xbe46bc24	-0.19407707
27	0xbf0f2e79	-0.55930287
28	0xbdf850a8	-0.12124759
29	0xbe1403c1	-0.14454557
30	0x3eb86a47	0.36018583
31	0x3ea534bc	0.32266796
32	0x3dbc62fc	0.09198567
33	0xbcca6b43	-0.02470935
34	0xbd06d331	-0.03291625
35	0xbed8c39b	-0.42336735
36	0x3e976127	0.2956631
37	0xbe0586ac	-0.13039654
38	0x3d9657f0	0.073409915
39	0xbe382e84	-0.17986494
40	0x3e8efec3	0.27928743
41	0xbe1ae1f9	-0.15125264
42	0x3d44f887	0.048088577
43	0xbe9eb553	-0.30997714
44	0x3e89173d	0.26775542
45	0x3e8ff72d	0.28118268
46	0xbee09fb0	-0.43871832
47	0x3e678ad1	0.22611548
48	0x3e77a85d	0.24185319
49	0x3e2055ea	0.15657774
50	0x3b9c3533	0.004767084
51	0xbe9598b7	-0.29218075
52	0x3e4846ed	0.19558306
53	0x3f0603ee	0.52349746
54	0x3eb2538b	0.34829363
55	0x3e2491e8	0.16071284
56	0x3dd5f832	0.1044773
57	0x3d6ab638	0.057302684
58	0xbe2bae7b	-0.16765778
59	0xbf1233f5	-0.5711053
60	0xbec83cfd	-0.3910903
61	0x3e980b11	0.29695943
62	0x3f00a2ec	0.502486
63	0x3f14e2cb	0.5815856
64	0x3e7e1419	0.24812354
65	0x3c91ef9a	0.017814446
66	0x3d8367cf	0.06416284
67	0x3e247bfc	0.16062921
68	0x3edbe5a8	0.4294865
69	0x3e3f39e2	0.18674424
70	0xbf1dce0b	-0.6164252
71	0xbe7835ac	-0.24239224
72	0xbc6bbf66	-0.014388895
73	0x3e6c11ed	0.23053713
74	0xbeffe15b	-0.4997662
75	0xbde3d24f	-0.111240976
76	0x3f29cf3d	0.66331846
77	0x3e8ac79e	0.2710542
78	0xbe4670a2	-0.19378904
79	0xbd8a75f4	-0.06760779
80	0x3f1874d9	0.59553295
81	0x3e77651f	0.24159668
82	0xbdcf81d3	-0.10132184
83	0xbe988b99	-0.29794005
84	0x3e0f4621	0.13991596
85	0x3e9349aa	0.2876714
86	0x3ee76b04	0.45198834
87	0x3ea735e1	0.32658294
88	0xbf35eb90	-0.71062565
89	0x3e23ecc0	0.16008282
90	0x3e0ad3b9	0.13557328
91	0xbe8cb0d2	-0.27478653
92	0xbdc79a72	-0.09746255
93	0x3e412e28	0.18865263
94	0xbe99d603	-0.3004609
95	0x3e3ea2c9	0.18616785
96	0xbca5ad46	-0.020224225
97	0xbd8eb05a	-0.0696723
98	0x3e96d006	0.29455584
99	0x3ea9618f	0.33082244
100	0xbd85eb90	-0.065390706
101	0x3d53d7f3	0.051719617
102	0x3c9c33b7	0.019067628
103	0xbc839483	-0.016062027
104	0x3e0e0ed6	0.13872847
105	0x3c523687	0.012830383
106	0x3e810e34	0.2520615
107	0xbd7b2948	-0.061318666
108	0x3d0f4495	0.034977514
109	0xbd914920	-0.070940256
110	0x3e4c1017	0.19928013
111	0xbe827a73	-0.25484046
112	0xbdff29c5	-0.12459139
113	0x3eb1c5a7	0.3472111
114	0xbe13c38b	-0.14430062
115	0xbe93a868	-0.2883942
116	0xbe104f9f	-0.14092873
117	0x3e0003a1	0.12501384
118	0x3eb572fc	0.3543929
119	0xbd9d1a39	-0.07671017
120	0xbe98dad2	-0.29854447
121	0xbe824724	-0.254449
122	0x3e65f593	0.2245696
123	0x3bfbadaa	0.0076806145
124	0xbda84a11	-0.08217252
125	0x3d90a919	0.07063503
126	0xbe56090b	-0.20901887
127	0x3cfa3ab3	0.030545568
128	0xbdfa22db	-0.122136794
129	0xbf154cb3	-0.5832016
130	0x3f022694	0.50840116
131	0x3e6c9164	0.23102337
132	0xbe30d9ae	-0.17270538
133	0x3cc9dfa6	0.024642777
134	0x3c3d5fd2	0.01155849
135	0x3cdc3cfd	0.02688455
136	0xbe07b19c	-0.13251346
137	0xbe53ffea	-0.20703092
138	0xbda3e55f	-0.080027334
139	0xbe8a32ec	-0.26991975
140	0xbb63b7f1	-0.0034747089
141	0x3e1268f7	0.14297853
142	0x3e4e9725	0.20174845
143	0x3c25d8c5	0.010122483
144	0xbe8e32fd	-0.27773276
145	0xbefebb17	-0.49752113
146	0xbe57911b	-0.21051447
147	0x3eae7847	0.3407614
148	0xbf38e648	-0.7222638
149	0xbd05d119	-0.032670114
150	0xbe17a363	-0.14808421
151	0x3e25b6a1	0.16182949
152	0xbdc86a0f	-0.09785854
153	0xbe9828e4	-0.29718697
154	0xbc4106a6	-0.01178137
155	0x3e15699a	0.14591065
156	0xbea7c20a	-0.32765228
157	0xbe4aff93	-0.19824056
158	0xbedb9a5d	-0.42891207
159	0x3cdeb186	0.02718426
160	0x3e8e2f60	0.2777052
161	0x3e422242	0.18958381
162	0x3eaad065	0.33362117
163	0x3d8642ac	0.065556854
164	0x3bbae9b5	0.0057041296
165	0x3f3e825b	0.74417657
166	0xbdf9d9a5	-0.121997155
167	0xbeee609d	-0.46558085
168	0xbeef36db	-0.4672154
169	0x3d367fba	0.044555403
170	0xbe857fd4	-0.26074088
171	0xbe65fe54	-0.224603
172	0xbd1933d5	-0.037402947
173	0xbe561f44	-0.20910364
174	0x3ebd1f76	0.36938065
175	0x3e0a2ddf	0.13494061
176	0x3e452377	0.1925181
177	0xbe2fef39	-0.171811
178	0xbe87ab9b	-0.26498112
179	0x3e433e72	0.1906679
180	0x3e35def6	0.17760834
181	0x3df4303f	0.11923265
182	0xbca4e7f7	-0.02013014
183	0x3f03bbc2	0.5145837
184	0x3ebd82a4	0.37013733
185	0xbd45cb63	-0.048289668
186	0xbe168e26	-0.14702663
187	0x3e051745	0.12997158
188	0xbebfd540	-0.37467384
189	0x3ee0b759	0.43889883
190	0x3da36f56	0.0798022
191	0x3f4041f9	0.75100666
192	0x3d7e0664	0.062017813
193	0x3d5fe527	0.054661896
194	0x3dac427c	0.084111184
195	0x3e09108a	0.13385215
196	0xbdcf8f9c	-0.10134813
197	0x3d7269ae	0.059182815
198	0xbe790794	-0.24319297
199	0xbdc51d82	-0.09624769
200	0xbd63a4c8	-0.05557707
201	0xbcb24d43	-0.021765357
202	0xbd83a143	-0.064272426
203	0x3db1c5c2	0.086802974
204	0x3d6d6b52	0.057963677
205	0xbd22baaf	-0.039728817
206	0xbd81afbd	-0.063323475
207	0xbb783f7f	-0.0037879643
208	0x3d5b58d2	0.053551503
209	0x3dcd5ba0	0.10027242
210	0x3e167f0d	0.14696904
211	0xbdc48f20	-0.095976114
212	0x3d11ba04	0.03557779
213	0xbe334c20	-0.17509508
214	0x3e20e224	0.15711266
215	0x3e1f3035	0.15545733
216	0x3d127247	0.035753515
217	0x3e2ccb11	0.16874339
218	0x3e292290	0.16517091
219	0xbe459d84	-0.19298369
220	0x3d92393c	0.07139823
221	0x3d9b4886	0.07582192
222	0xbe802c08	-0.25033593
223	0x3e0aa750	0.13540387
224	0x3edc910a	0.43079406
225	0xbe6e813d	-0.23291488
226	0xbe61a0a1	-0.22033931
227	0x3e89651d	0.26834956
228	0x3e853509	0.26017025
229	0x3df9c88b	0.12196454
230	0xbe475015	-0.19464143
231	0xbe141777	-0.14462076
232	0xbec05b79	-0.37569788
233	0x3ed683b8	0.41897368
234	0x3e7426a8	0.23842871
235	0xbe629ce1	-0.22130157
236	0x3f048863	0.5177061
237	0x3e2aeb11	0.16691233
238	0x3f6cbf63	0.9247953
239	0x3e0bec97	0.1366447
240	0x3d8c4998	0.068499744
241	0xbe48ce0c	-0.1960985
242	0x3df25f77	0.11834615
243	0x3ed8315b	0.42225155
244	0xbe3d52ac	-0.18488568
245	0x3f0e46ad	0.5557659
246	0xbebb6c81	-0.3660622
247	0xbe2c4769	-0.16824116
248	0xbd30f3ea	-0.043201365
249	0xbe511077	-0.20416437
250	0x3ec5dcda	0.3864506
251	0x3e096b27	0.13419782
252	0x3df137c2	0.11778213
253	0x3da35692	0.07975496
254	0xbdf9dff1	-0.122009166
255	0xbe227a7c	-0.15867037

context_transformer_1/attention/value/add;StatefulPartitionedCall/context_transformer_1/attention/value/add;context_transformer_0/attention/value/einsum/Einsum;StatefulPartitionedCall/context_transformer_0/attention/value/einsum/Einsum;context_transformer_1/attention/value/einsum/Einsum;StatefulPartitionedCall/context_transformer_1/attention/value/einsum/Einsum;12730 f4 [32]
0	0x3d550e54	0.052015617
1	0x3c714649	0.01472623
2	0xbd8ea654	-0.06965318
3	0xbafe98b7	-0.0019424175
4	0x3d83b1e0	0.06430411
5	0xbc88e49e	-0.016710576
6	0x3d6403f5	0.055667836
7	0xbca518b9	-0.02015339
8	0xbc0d8403	-0.008637431
9	0x3cdf0e7b	0.027228585
10	0xbdc0ae29	-0.094082184
11	0xbd3d2ce4	-0.04618539
12	0xbd200945	-0.03907134
13	0x3b8689b9	0.0041057733
14	0x3c6d3b71	0.014479504
15	0xbcfb9e30	-0.030715078
16	0xbda2fabd	-0.07957981
17	0x3da219a7	0.07915049
18	0x3ac7e008	0.0015249262
19	0xbd1ce5a3	-0.038304936
20	0x3d15b421	0.036548737
21	0x3db357bb	0.08756968
22	0xbce321e7	-0.027726127
23	0xbd377ad2	-0.044794865
24	0xbd9bdae8	-0.076101124
25	0xbbb591e4	-0.005541073
26	0x3dc95b0b	0.09831818
27	0x3d9c98bd	0.0764632
28	0xbe0fec37	-0.14054953
29	0xb9a11d34	-0.0003073007
30	0xbe5ba050	-0.21447873
31	0xbdbf2f71	-0.093352206

context_transformer_1/bottleneck_input/norm/mul;StatefulPartitionedCall/context_transformer_1/bottleneck_input/norm/mul;context_transformer_0/bottleneck_input/dense/einsum/Einsum;StatefulPartitionedCall/context_transformer_0/bottleneck_input/dense/einsum/Einsum;context_transformer_1/bottleneck_input/dense/add;StatefulPartitionedCall/context_transformer_1/bottleneck_input/dense/add;context_transformer_1/bottleneck_input/dense/einsum/Einsum;StatefulPartitionedCall/context_transformer_1/bottleneck_input/dense/einsum/Einsum;12706;12708 f4 [32, 32]
0	0x3e94327d	0.2894477
1	0x3dd7672b	0.105177246
2	0xbe45fb55	-0.19334157
3	0xba8538b0	-0.0010163989
4	0xbdf35c31	-0.118828185
5	0x3e18a025	0.1490484
6	0x3e25e2bd	0.16199775
7	0xbd3d99c7	-0.04628923
8	0xbe1fca88	-0.15604603
9	0x3e00a0ec	0.12561387
10	0x3ee7ae4f	0.45250174
11	0xbd461c3e	-0.048366778
12	0x3e8928f4	0.26789057
13	0xbe90a461	-0.2825041
14	0x3f1496a7	0.5804238
15	0x3ddcb134	0.10775986
16	0x3e14d7dc	0.14535469
17	0x3cf93904	0.030422695
18	0x3edf59fe	0.43623346
19	0x3e08bc05	0.13352974
20	0xbe96872a	-0.29399997
21	0xbe06d67b	-0.13167755
22	0xbd782271	-0.06057972
23	0x3e0838dc	0.1330294
24	0xbd1c349d	-0.038136113
25	0xbe711ef2	-0.23546961
26	0xbe54d2de	-0.20783564
27	0xbde39596	-0.11112516
28	0x3c48884b	0.012239526
29	0x3f15910b	0.58424443
30	0x3eaa0eca	0.33214408
31	0xbf16426c	-0.586951
32	0xbc254047	-0.010086126
33	0xbe98e5b6	-0.29862756
34	0x3e3ea151	0.18616225
35	0xbe2683ab	-0.16261165
36	0xbdd0a0e5	-0.10186938
37	0x3e6220a9	0.22082771
38	0x3e2c5604	0.16829687
39	0xbcd3fec1	-0.025878312
40	0xbea9cf66	-0.33166045
41	0x3dc6e35b	0.09711333
42	0xbe5db1aa	-0.21649805
43	0x3e6490d1	0.22320868
44	0xbd92799d	-0.07152102
45	0xbdfd5247	-0.12369209
46	0xbd5cd0cb	-0.053910058
47	0xbdf0cb3b	-0.11757513
48	0x3e320ee1	0.17388488
49	0xbe8000e8	-0.2500069
50	0xbc724416	-0.014786741
51	0xbd9092ac	-0.070592254
52	0x3eb2c2f1	0.34914353
53	0xbe661d07	-0.2247201
54	0x3e4c25d7	0.1993631
55	0xbeea23f2	-0.4573055
56	0xbd97c2a9	-0.07410175
57	0x3e8d49cf	0.27595374
58	0x3e089251	0.13337065
59	0xbd78954d	-0.06068926
60	0xbd78e5a1	-0.060765866
61	0xbf030395	-0.5117734
62	0xbe876f46	-0.26452082
63	0x3dd53b57	0.10411709
64	0xbd53fbbd	-0.05175375
65	0x3cacb55c	0.021082573
66	0x3db8a71a	0.09016247
67	0x3dc1ee33	0.09469261
68	0x3d4a2551	0.049351994
69	0xbe07ded8	-0.13268602
70	0x3e6d3a47	0.23166762
71	0xbe7d0ab3	-0.24711113
72	0x3dea8bc6	0.11452441
73	0xbdd844b2	-0.105599776
74	0x3e859c19	0.26095656
75	0xbb178308	-0.0023118872
76	0xbe3a8e26	-0.18218288
77	0xbcf7a37e	-0.030229326
78	0x3c5285c7	0.012849278
79	0xbcf84e56	-0.030310791
80	0x3d81cdeb	0.06338104
81	0x3e6e964e	0.23299524
82	0x3dac149b	0.08402368
83	0xbdb19c51	-0.08672393
84	0xbdd2f4eb	-0.10300621
85	0x3db3da1a	0.08781834
86	0x3cbce9f0	0.023060769
87	0x3e49513f	0.19659899
88	0x3e20c5a7	0.15700398
89	0x3d6dee2c	0.058088467
90	0xb8e229ba	-0.00010784292
91	0x3d8cbb13	0.06871619
92	0xbe969c50	-0.29416132
93	0x3df60232	0.120121375
94	0x3e1b337f	0.15156363
95	0x3e819451	0.2530847
96	0xbd0939ac	-0.033502266
97	0x3e0d8d16	0.13823351
98	0xbe5b3eb0	-0.21410632
99	0x3e93ec70	0.28891325
100	0xbc50a30e	-0.012734188
101	0x3e938fac	0.2882055
102	0xbe01ccbf	-0.1267576
103	0x3e3c3f8e	0.18383619
104	0xbe69cf30	-0.22832942
105	0xbd1c9938	-0.03823206
106	0xbe171442	-0.14753821
107	0xbe765267	-0.24054871
108	0x3dac6abe	0.08418797
109	0x3d9d76bb	0.07688662
110	0xbe1e53dd	-0.15461679
111	0xbe34d844	-0.17660624
112	0xbd058c53	-0.032604527
113	0x3ec5babd	0.38619033
114	0xbe6f0d7c	-0.23344988
115	0x3d702da0	0.05863726
116	0x3edcd14e	0.43128437
117	0x3ce80975	0.028324822
118	0x3e81cf16	0.25353307
119	0xbe9088cb	-0.28229365
120	0xbdffd0dc	-0.12491009
121	0x3dd50fa1	0.104033716
122	0x3e009b91	0.12559344
123	0x3dcc2312	0.09967627
124	0xbcb95744	-0.02262462
125	0xba6c6e8b	-0.0009019158
126	0x3dde7150	0.108614564
127	0x3e2a5499	0.16633834
128	0xbc468657	-0.01211699
129	0xbc776f62	-0.015102239
130	0xbe8d3201	-0.27577212
131	0xbc42d8a1	-0.011892469
132	0xbd6c3471	-0.0576672
133	0x3ecd17a4	0.400571
134	0xbe86991b	-0.26288685
135	0x3f16cb57	0.5890402
136	0xbd4dc28b	-0.05023436
137	0xbd15a874	-0.036537603
138	0xbea5fe10	-0.32420397
139	0xbdd79073	-0.105255984
140	0x3df72f91	0.120696194
141	0x3d673463	0.056446444
142	0x3d520698	0.05127582
143	0xbe009db7	-0.12560163
144	0x3e4fd86f	0.20297407
145	0x3e49c747	0.19704925
146	0x3dda445b	0.10657569
147	0xbe33f54d	-0.17574044
148	0x3d199025	0.037490983
149	0x3da17d59	0.07885236
150	0x3f05d795	0.5228208
151	0x3d5f1103	0.054459583
152	0x3e9bd4bf	0.3043575
153	0xbdbcea64	-0.09224394
154	0xbd78e534	-0.06076546
155	0xbed65e0e	-0.41868633
156	0x3eba9b95	0.36446825
157	0xbe5bc67b	-0.21462433
158	0xbe02d2b9	-0.12775697
159	0x3d0a1e6d	0.033720423
160	0x3e087737	0.13326727
161	0x3e9fe600	0.31230164
162	0x3f14a28c	0.58060527
163	0x3ea9a4ee	0.33133644
164	0xbe5efd11	-0.21776225
165	0x3e275d09	0.16344084
166	0x3d08dada	0.033411838
167	0x3f11b033	0.56909484
168	0xbda1db6c	-0.079031795
169	0x3cf73ef4	0.030181386
170	0xbe81b081	-0.25329974
171	0x3dca6451	0.09882415
172	0xbdb40da3	-0.087916635
173	0x3b9c1a97	0.004763912
174	0x3e1c8fa3	0.15289168
175	0xbdf086ce	-0.11744462
176	0x3d9332a9	0.07187397
177	0x3eb8f1c1	0.36121944
178	0x3ee0a139	0.43873003
179	0xbd8bea2a	-0.068317726
180	0x3e55f86e	0.2089555
181	0xbd9d8f98	-0.07693404
182	0xbdde2d7d	-0.1084852
183	0x3ddb8f9b	0.1072075
184	0x3c786ef0	0.015163168
185	0x3e290cd4	0.165088
186	0xbc9edf5e	-0.01939362
187	0xbe9096cf	-0.28240058
188	0xbeb3c853	-0.35113773
189	0x3ce73a6f	0.028226105
190	0x3e217239	0.15766229
191	0x3d60e662	0.05490721
192	0xbe3766b9	-0.1791028
193	0x3cf0fc1a	0.029417086
194	0x3c2c95b6	0.010533741
195	0x3cb67802	0.022274021
196	0x3e6c29c5	0.23062809
197	0xbe8c1e8a	-0.2736705
198	0x3e9a03ce	0.30081028
199	0xbe67d909	-0.22641386
200	0xbdc1d1de	-0.09463857
201	0x3dc4564b	0.095867716
202	0xbd9fa231	-0.077946074
203	0x3e786cb5	0.24260218
204	0xbd3e8aee	-0.046519212
205	0xbd9695e7	-0.0735281
206	0xbe053ece	-0.1301224
207	0xbe2891d5	-0.1646188
208	0x3e74d1b2	0.23908117
209	0x3df958cf	0.12175142
210	0xbd9a49c7	-0.07533603
211	0xbe9b072f	-0.30278918
212	0xbd9fafff	-0.077972405
213	0xbd437d63	-0.047727
214	0xbdca29d3	-0.098712586
215	0xba876bd9	-0.0010331824
216	0xbeffb8ba	-0.49945623
217	0x3e0bc26c	0.13648385
218	0x3e313045	0.1730357
219	0x3cd7ef68	0.026359275
220	0xbe43f736	-0.19137272
221	0x3d0b399c	0.033990487
222	0xbd73dfa8	-0.059539467
223	0x3d02cd1a	0.03193388
224	0x3ce86512	0.028368507
225	0xbd037f0f	-0.032103594
226	0x3ea9c639	0.33159044
227	0x3e537294	0.20649177
228	0xbe837af5	-0.25679746
229	0x3e95f5bc	0.29289043
230	0x3d693b30	0.05694121
231	0xbea82c34	-0.32846224
232	0x3e2469db	0.16056006
233	0xbe0c76d9	-0.13717212
234	0x3e292ed6	0.16521773
235	0xbe7fbec1	-0.2497511
236	0x3e11de6e	0.14245006
237	0xbe3c2c4e	-0.18376276
238	0xbd86eba4	-0.06587914
239	0x3ec39a01	0.38203433
240	0xbe9ca3fb	-0.30593857
241	0xbaa21862	-0.0012366886
242	0x3ded543f	0.11588334
243	0x3d09f13b	0.03367732
244	0x3d4b08d6	0.049568973
245	0xbe244e97	-0.16045605
246	0x3e153e5d	0.14574571
247	0xbb879773	-0.004137927
248	0xbe1e9893	-0.1548789
249	0x3e6fda1f	0.2342305
250	0xbd9e4d56	-0.077295944
251	0x3e19e4e7	0.15028726
252	0x3e1caa65	0.15299375
253	0xbd930013	-0.071777485
254	0x3c4e2a0f	0.01258327
255	0xbdf1126c	-0.11771092

mention_transformer_0/attention/value/add;StatefulPartitionedCall/mention_transformer_0/attention/value/add;mention_transformer_0/attention/value/einsum/Einsum;StatefulPartitionedCall/mention_transformer_0/attention/value/einsum/Einsum;12834 f4 [32]
0	0xbe828b3a	-0.25496846
1	0xbde51260	-0.111851454
2	0xbdef0a52	-0.1167189
3	0xbcb8cd0e	-0.022558715
4	0xbd6dc28c	-0.058046862
5	0x3e9e5ce6	0.3093025
6	0xbcec5cb4	-0.028852798
7	0x3e11c7f2	0.1423643
8	0x3e3549de	0.1770396
9	0xbe76ca22	-0.24100545
10	0x3ea2abf5	0.31771818
11	0xbe8ce7d6	-0.27520627
12	0x3da81a4f	0.08208143
13	0xbe4068d7	-0.18789993
14	0x3e0ea9ba	0.13931933
15	0x3d577a99	0.052607153
16	0x3db23361	0.08701206
17	0x3de1bb7d	0.11022089
18	0x3d33fcf4	0.043942407
19	0x3ca07c80	0.019590616
20	0xbe3bd61b	-0.18343394
21	0xbd21fa29	-0.039545212
22	0x3e3abf0d	0.18236943
23	0x3e2389c8	0.15970528
24	0x3e6524da	0.22377339
25	0x3d0c1f9a	0.034209825
26	0xbc5209d0	-0.012819722
27	0xbeab63f6	-0.33474702
28	0xbe811fcb	-0.2521957
29	0xbe180bb3	-0.14848213
30	0xbe142fe3	-0.14471392
31	0x3e45185b	0.19247572

mention_transformer_0/bottleneck_input/norm/mul;StatefulPartitionedCall/mention_transformer_0/bottleneck_input/norm/mul;sequential_1/dense_3/Tensordot/shape;StatefulPartitionedCall/sequential_1/dense_3/Tensordot/shape;mention_transformer_0/bottleneck_input/dense/add;StatefulPartitionedCall/mention_transformer_0/bottleneck_input/dense/add;mention_transformer_0/bottleneck_input/dense/einsum/Einsum;StatefulPartitionedCall/mention_transformer_0/bottleneck_input/dense/einsum/Einsum;12810;12812 f4 [32, 32]
0	0xbe397ade	-0.18113276
1	0x3df9bf6e	0.121947154
2	0x3d5d0981	0.05396414
3	0xbcd99bb8	-0.02656351
4	0x3eeb0365	0.45901027
5	0xbe151f74	-0.1456278
6	0x3e6c9260	0.23102713
7	0xbba2d4a2	-0.0049691955
8	0xbea1a7e4	-0.31573403
9	0xbde4cef0	-0.11172283
10	0xbd40e39e	-0.047092073
11	0x3ce898d6	0.02839319
12	0x3e4b71ff	0.19867705
13	0x3dd24e38	0.10268825
14	0xbec1d816	-0.37860173
15	0xbd20a88b	-0.039223235
16	0x3d17cb88	0.037059337
17	0xb883b3d3	-6.280062e-05
18	0xbd6eca53	-0.05829842
19	0x3cb8d1b0	0.022560924
20	0xbe5949d4	-0.2121957
21	0xbe91c0ff	-0.28467557
22	0xbebb770c	-0.36614263
23	0xbe076d4b	-0.13225286
24	0xbe4dd7ef	-0.20101903
25	0x3e47e4bd	0.1952085
26	0x3e58ca12	0.21170834
27	0x3ebcff43	0.369135
28	0x3e310f5c	0.17291015
29	0xbde55b0a	-0.11199005
30	0xbeab4672	-0.33452183
31	0x3e231c28	0.1592871
32	0x3eedbd8c	0.46433675
33	0xbe9e01e3	-0.30860814
34	0x3e6d630a	0.23182312
35	0xbe0f56c5	-0.13997944
36	0xbd42a546	-0.0475209
37	0x3e8976f7	0.26848575
38	0xbeb05968	-0.34443212
39	0x3eb1a222	0.3469401
40	0x3da8da5d	0.082447745
41	0xbe02b289	-0.12763418
42	0x3e494039	0.19653405
43	0x3dd1ddca	0.10247381
44	0xbe13a432	-0.14418104
45	0xbe9cb562	-0.30607134
46	0xbc8c9f58	-0.017165825
47	0x3e3d212f	0.1846969
48	0xbd8a4328	-0.0675109
49	0x3da3bdff	0.07995223
50	0xbe3d4953	-0.18485002
51	0xbdc35e4d	-0.09539471
52	0x3e68c10c	0.22729892
53	0x3cb9d22f	0.022683231
54	0x3efd5474	0.49478495
55	0xbd2f23a7	-0.04275861
56	0xbe237f29	-0.15966477
57	0xbdc89ebb	-0.097959004
58	0xbd572b79	-0.052531693
59	0xbe017b8d	-0.12644787
60	0xbe1675c3	-0.1469336
61	0x3e88ff9a	0.2675751
62	0x3e30ed69	0.17278065
63	0x3dbd533e	0.09244393
64	0xbde42f8d	-0.11141882
65	0x3e04642e	0.1292884
66	0xbe32b7d1	-0.17452933
67	0xbe381ff4	-0.17980939
68	0x3e07cae1	0.13260986
69	0x3ea9cf7b	0.33166108
70	0x3d9974df	0.074929945
71	0x3c288369	0.010285237
72	0xbd7ba4e1	-0.061436538
73	0x3e235534	0.15950471
74	0x3d8c9adb	0.06865474
75	0xbd4589e5	-0.04822721
76	0xbd86367c	-0.06553361
77	0xbea4f8e4	-0.32221138
78	0x3e09dfa2	0.13464215
79	0xbe93dfa8	-0.28881574
80	0x3e4a34e5	0.1974674
81	0xbe906f94	-0.28210127
82	0x3b5aa788	0.0033364017
83	0x3e85c2d6	0.2612521
84	0xbe20e16e	-0.15710995
85	0xbcbfbf2a	-0.023406584
86	0x3d3dc937	0.04633447
87	0xbe9a7882	-0.30170065
88	0x3dcf0900	0.101091385
89	0x3e4aa293	0.1978858
90	0x3e6357ff	0.22201537
91	0x3e87fe0f	0.2656102
92	0xbe97af69	-0.29626015
93	0xbefdf68c	-0.49602163
94	0xbe6aa47a	-0.22914305
95	0xbe3a4ef5	-0.18194182
96	0xbe532311	-0.20618846
97	0x3e3dc481	0.18531992
98	0x3e258b77	0.16166483
99	0x3e23792c	0.15964192
100	0xbdd8bcd2	-0.105828896
101	0x3d58ced6	0.05293163
102	0x3d884de5	0.06655482
103	0xbd9f7533	-0.07786026
104	0x3d6fb568	0.05852261
105	0x3e5f1b51	0.21787764
106	0x3d108818	0.03528604
107	0xbe622c4e	-0.22087213
108	0x3e551d46	0.20811948
109	0x3eac22e9	0.33620384
110	0x3eea07d9	0.45709112
111	0xbdfb1832	-0.12260474
112	0xbeb5e822	-0.35528666
113	0xbdbcfb2b	-0.09227594
114	0x3d6e906f	0.05824321
115	0x3dc40805	0.09571842
116	0x3e70db66	0.23521194
117	0x3e9ed178	0.31019187
118	0xbecfc3b5	-0.40579
119	0xbdb9f284	-0.09079459
120	0x3ea11c23	0.3146678
121	0x3e32b2d2	0.17451027
122	0xbddca33d	-0.10773323
123	0xbea2b7a8	-0.31780744
124	0xbe9ebf6d	-0.3100542
125	0xbe180e7f	-0.1484928
126	0x3e4672ac	0.19379681
127	0xbe02bbfc	-0.12767023
128	0xbc9881f1	-0.018616648
129	0xbd044103	-0.032288563
130	0x3c42041f	0.011841803
131	0x3d17a784	0.03702499
132	0xbe622863	-0.22085719
133	0xbd20a57e	-0.039220326
134	0xbe6cf9b8	-0.23142135
135	0x3dbe286c	0.092850536
136	0xbe87a3e6	-0.26492232
137	0xbe4bacab	-0.19890086
138	0x3e3a4b90	0.18192887
139	0x3cc1d398	0.023660466
140	0xbe388994	-0.18021232
141	0xbd9a757f	-0.07541942
142	0x3e0e7a80	0.13913918
143	0x3c92a87f	0.01790261
144	0x3e88b2fe	0.2669906
145	0x3d216b93	0.03940923
146	0xbdf22071	-0.11822594
147	0xbe4a4c42	-0.19755653
148	0x3d68628d	0.05673461
149	0xbe00dd0c	-0.12584323
150	0x3e4bad06	0.19890222
151	0x3e205497	0.15657268
152	0x3e21014d	0.15723152
153	0xbc28215b	-0.010261859
154	0x3e6895f6	0.22713456
155	0xbd227b2d	-0.03966825
156	0x3ea2fdf9	0.3183439
157	0xbdef5cb6	-0.11687605
158	0xbe0a4870	-0.13504195
159	0xbe194648	-0.14968216
160	0xbd5cea22	-0.053934224
161	0x3cfbc043	0.030731326
162	0x3dcc768f	0.09983551
163	0xbdbe84e0	-0.09302688
164	0xbdc5a3f1	-0.0965041
165	0x3dbbbb22	0.09166552
166	0x3e901a4a	0.28145057
167	0xbee94fbc	-0.45568645
168	0x3d4e05ff	0.050298687
169	0x3ee2e861	0.44317916
170	0xbe1d29b9	-0.15347947
171	0x3e89b230	0.2689376
172	0x3f0c0e54	0.54709363
173	0x3c00029c	0.007813122
174	0x3cccb8ca	0.024990458
175	0xbdc1ebe4	-0.09468821
176	0x3e27b792	0.1637862
177	0xbf083f63	-0.5322172
178	0x3eb722df	0.35768792
179	0xbd562e75	-0.0522904
180	0x3e004097	0.12524639
181	0x3dd47868	0.10374528
182	0xbe8ce228	-0.27516294
183	0xbd851f50	-0.06500113
184	0x3deb1c9e	0.11480068
185	0xbe54639b	-0.20741121
186	0xbc7d55dd	-0.015462366
187	0x3ee48d8f	0.4463925
188	0x3d36e49f	0.044651624
189	0xbe41cd09	-0.18925871
190	0xbaf5d857	-0.0018756491
191	0x3f24b01f	0.6433124
192	0x3c91d439	0.017801391
193	0x39f8078a	0.00047307863
194	0x3e970b64	0.29500878
195	0xbe5d5de3	-0.21617846
196	0x3ef9bd3a	0.4877718
197	0x3df4f13f	0.119600765
198	0x3d85fe23	0.06542613
199	0xbc81d4f9	-0.015848624
200	0xbdbff706	-0.09373288
201	0xbe482f2e	-0.19549248
202	0x3dace3ce	0.08441888
203	0x3d6eb88d	0.05828147
204	0x3e0053a9	0.12531914
205	0xbe844db6	-0.2584054
206	0x3dba1ab9	0.09087128
207	0xbe079590	-0.13240647
208	0xbe377b13	-0.17918043
209	0xbce140f8	-0.0274968
210	0xbe826899	-0.25470427
211	0xbdb70ca9	-0.089379616
212	0x3e5795b8	0.21053207
213	0xbd605420	-0.054767728
214	0x3e0804bd	0.13283058
215	0xbd26ae83	-0.04069377
216	0x3e3dbfcf	0.185302
217	0xbe19d09e	-0.15020987
218	0x3d07e506	0.0331774
219	0x3e6e35d5	0.23262723
220	0xbe079d3c	-0.13243574
221	0xbe2c4686	-0.16823778
222	0xbd9ac92e	-0.07557903
223	0x3e9becd5	0.30454126
224	0x3e053c05	0.13011177
225	0x3de4de2c	0.111751884
226	0x3e0d7d42	0.13817313
227	0x3e3e755f	0.18599461
228	0xbe48d298	-0.19611585
229	0x3e432717	0.1905788
230	0xbe9d5c96	-0.307347
231	0x3e589cc0	0.21153545
232	0xbd0b29bf	-0.03397536
233	0xbcbc0b90	-0.022954732
234	0xbc4b655d	-0.012414304
235	0x3be45d0d	0.0069691003
236	0x3ea51ddb	0.3224934
237	0xbe852951	-0.26008084
238	0xbe16360f	-0.14669059
239	0x3e3f86c3	0.18703751
240	0xbd85d7f6	-0.06535332
241	0x3d6feaef	0.05857366
242	0xbea807bb	-0.32818398
243	0xbde8e89f	-0.11372494
244	0x3d0d9e6e	0.03457492
245	0xbe7e4c3e	-0.24833772
246	0x3da1a90b	0.078935705
247	0x3d40126b	0.046892565
248	0x3d590a2a	0.05298821
249	0x3e390b2f	0.18070672
250	0x3e95412e	0.2915129
251	0xbec2abc2	-0.38021666
252	0xbd162ece	-0.03666573
253	0x3d33583a	0.04378531
254	0xbdc88d6d	-0.097926
255	0xbe4e19ba	-0.20127001

mention_transformer_1/attention/value/add;StatefulPartitionedCall/mention_transformer_1/attention/value/add;mention_transformer_0/attention/value/einsum/Einsum;StatefulPartitionedCall/mention_transformer_0/attention/value/einsum/Einsum;mention_transformer_1/attention/value/einsum/Einsum;StatefulPartitionedCall/mention_transformer_1/attention/value/einsum/Einsum;12926 f4 [32]
0	0xbd2e9725	-0.04262461
1	0xbde01673	-0.10941782
2	0x3e45f221	0.19330646
3	0xbcd8dba5	-0.026471922
4	0xbdcb1571	-0.09916199
5	0xbd803268	-0.06259614
6	0xbd3a8176	-0.04553362
7	0xbd1ba90b	-0.03800301
8	0xbe212765	-0.15737684
9	0x3e8ef40e	0.27920574
10	0x3e91a908	0.28449273
11	0xbe0192f3	-0.12653713
12	0x3c6833f0	0.014172539
13	0x3e8a4cb7	0.27011654
14	0xbd69339f	-0.056933995
15	0xbbd8be74	-0.0066145007
16	0x3e7b4e9c	0.24541706
17	0xbce38bd9	-0.027776645
18	0xbe34a273	-0.17640094
19	0xbe32457a	-0.17409316
20	0xbc878699	-0.016543673
21	0x3ae74df7	0.0017647137
22	0xbe459049	-0.19293322
23	0x3cb3c619	0.021945046
24	0x3e34e2a6	0.17664585
25	0xbcc9a918	-0.024616763
26	0xbe895b70	-0.26827574
27	0xbe4865c4	-0.1957007
28	0xbe2b4678	-0.167261
29	0x3eb17836	0.34662026
30	0xbe5a89eb	-0.21341674
31	0xbd4d4bf5	-0.050121266

mention_transformer_1/bottleneck_input/norm/mul;StatefulPartitionedCall/mention_transformer_1/bottleneck_input/norm/mul;sequential_1/dense_3/Tensordot/shape;StatefulPartitionedCall/sequential_1/dense_3/Tensordot/shape;mention_transformer_1/bottleneck_input/dense/add;StatefulPartitionedCall/mention_transformer_1/bottleneck_input/dense/add;mention_transformer_1/bottleneck_input/dense/einsum/Einsum;StatefulPartitionedCall/mention_transformer_1/bottleneck_input/dense/einsum/Einsum;12902;12904 f4 [32, 32]
0	0xbccbe0d7	-0.024887485
1	0xbdfa5f4d	-0.122252084
2	0x3ea3fdff	0.3202972
3	0x3d928b51	0.07155479
4	0xbede568b	-0.43425402
5	0x3ca157e0	0.019695222
6	0xbe733411	-0.2375033
7	0x3ecdb0a4	0.4017383
8	0x3cb058ec	0.021526776
9	0x3e0488ac	0.12942761
10	0xbc40005e	-0.011718838
11	0x3bc54c03	0.006021024
12	0x3e8998e1	0.2687445
13	0xbe2a141d	-0.16609235
14	0xbe8916fd	-0.2677535
15	0x3e8e4fd8	0.2779529
16	0x3e7348a4	0.23758179
17	0x3e2bdc50	0.16783261
18	0xbec39c0f	-0.38205
19	0x3db61b1f	0.08891892
20	0xbed47a00	-0.4149933
21	0xbdbe7c39	-0.09301037
22	0x3cc9cb20	0.02463299
23	0x3ce18d42	0.027533177
24	0xbdeb7fce	-0.11498986
25	0xbdcb5b33	-0.09929504
26	0x3e9b2c3b	0.30307183
27	0xbe8d0679	-0.27544
28	0xbd02b2e6	-0.031908892
29	0x3e57a205	0.210579
30	0x3d850d6d	0.064967014
31	0xbe9e6cf4	-0.309425
32	0x3dc0caa8	0.094136536
33	0x3d9e81e7	0.07739621
34	0x3d2ea4a6	0.04263749
35	0x3e3ea55a	0.18617764
36	0xbe0e32c4	-0.13886553
37	0x3d29fc4f	0.041500386
38	0x3dfafd6f	0.1225537
39	0xbd4220ef	-0.04739469
40	0x3e73b7e8	0.23800623
41	0x3e00b182	0.12567714
42	0xbd796910	-0.06089121
43	0x3da9cd6d	0.08291135
44	0x3e032cfd	0.1281013
45	0x3d179e39	0.037016127
46	0x3e5e8c22	0.21733144
47	0x3e038f9a	0.12847748
48	0x3a9de221	0.0012045541
49	0x3d9e0b43	0.07716992
50	0xbb3ee10c	-0.0029125838
51	0x3d9977ba	0.07493539
52	0x3e230053	0.15918092
53	0x3d7e79b2	0.062127776
54	0x3dcf33e8	0.10117322
55	0x3e283bb6	0.16429028
56	0xbde8815e	-0.113528
57	0x3cc6ae14	0.024252929
58	0xbe89ea07	-0.2693636
59	0xbe826080	-0.2546425
60	0xbdbde9f2	-0.09273137
61	0x3e284df9	0.16435994
62	0x3ea25d7e	0.31711954
63	0x3e9245b7	0.28568813
64	0xbe5f9e51	-0.21837737
65	0x3e6c9a84	0.23105818
66	0xbcdfd8dd	-0.027325088
67	0x3d55f900	0.052239418
68	0xbe1be8f1	-0.15225579
69	0x3d8f0493	0.06983294
70	0x3eb17971	0.34662965
71	0xbda7292e	-0.08162151
72	0xbe84ae3e	-0.25914186
73	0x3e1588b1	0.14602925
74	0x3dde2109	0.10846145
75	0xbe1c5ca7	-0.15269719
76	0xbd7bc7f4	-0.061469987
77	0x3e015f82	0.1263409
78	0xbdf7cbe3	-0.12099435
79	0xbdd7c0ca	-0.105348185
80	0xbe05fa46	-0.13083753
81	0x3c42f145	0.011898343
82	0x3e748049	0.23877062
83	0xbccaa038	-0.024734601
84	0xbdde4c10	-0.108543515
85	0x3d34d363	0.044146907
86	0xbedc23cb	-0.42996058
87	0xbdc8a629	-0.097973175
88	0x3e213e69	0.15746464
89	0x3df0b9d3	0.11754193
90	0xbd5841ea	-0.052797236
91	0xbe41866e	-0.18898937
92	0xbe7a2669	-0.24428715
93	0xbe5591f7	-0.20856462
94	0xbdd34153	-0.10315194
95	0xbdc76801	-0.09736634
96	0xbda43a64	-0.0801895
97	0x3d09579d	0.03353082
98	0xbe4c8584	-0.19972807
99	0xbd01172f	-0.03151625
100	0xbe0b7501	-0.13618852
101	0xbd99ea69	-0.07515413
102	0x3cbf43af	0.023347704
103	0x3e542275	0.2071627
104	0x3c870ebd	0.01648652
105	0xbda32f75	-0.07968036
106	0x3d0b886c	0.03406565
107	0xbed04305	-0.40676132
108	0x3d136ed4	0.035994366
109	0x3ed68696	0.41899556
110	0x3dde90a0	0.10867429
111	0xbee9b886	-0.45648593
112	0x3e7f11c9	0.24909128
113	0x3e853ef7	0.260246
114	0xbd6d78e4	-0.05797662
115	0xbaf879c2	-0.0018957185
116	0xbe2ed664	-0.17073971
117	0x3e54953d	0.20760055
118	0xbe5275ed	-0.20552798
119	0x3e850f99	0.25988463
120	0x3e4aaf0e	0.1979334
121	0x3cf8a66a	0.03035279
122	0x3d40f055	0.0471042
123	0x3f30da06	0.6908268
124	0x3e159d7d	0.14610858
125	0xbdac31c4	-0.084079295
126	0xbe0368ca	-0.12832943
127	0x3e96478b	0.29351458
128	0xbc85fc81	-0.016355755
129	0x3d4fe1e7	0.050752547
130	0x3e2961bf	0.16541193
131	0xbd301143	-0.042985212
132	0x3dd680a6	0.104737565
133	0xbd3fa6ff	-0.04679012
134	0xbb2c893b	-0.0026326913
135	0x3e276bb6	0.16349682
136	0xbd61243b	-0.054966193
137	0x3d7d710c	0.061875388
138	0xbcbae98c	-0.022816442
139	0xbeadeb21	-0.33968452
140	0xbdc80b03	-0.09767725
141	0x3dc65fd7	0.09686249
142	0xbeacb380	-0.33730698
143	0xbd81bd0e	-0.063348874
144	0x3d2ca986	0.042153858
145	0x3e8f6c3c	0.28012264
146	0x3dad1741	0.08451701
147	0x3d541c04	0.05178453
148	0xbec6d116	-0.38831395
149	0xbd8ff770	-0.07029617
150	0xbcab907c	-0.020942919
151	0x3d081c09	0.03322986
152	0xbdcfc80a	-0.10145576
153	0x3cba558e	0.022745874
154	0x3df391b8	0.11893028
155	0x3b77ba55	0.0037800272
156	0x3e8fc9c6	0.28083628
157	0x3e2d1a54	0.16904575
158	0xbde221ab	-0.11041578
159	0xbf120bf7	-0.57049507
160	0xbe1625ea	-0.146629
161	0xbe01aefe	-0.1266441
162	0xbded66c4	-0.115918666
163	0xbeafeb1c	-0.34359062
164	0x3e37c6dd	0.17946954
165	0x3d3fa4cc	0.046788022
166	0xbd990b5c	-0.0747287
167	0xbe727c26	-0.23680171
168	0xbc85dafe	-0.016339775
169	0xbe71d643	-0.2361689
170	0x3e42c36a	0.19019857
171	0x3ccf4abb	0.025304189
172	0xbbbf07bf	-0.005829781
173	0xbe4fe0ae	-0.20300552
174	0x3d61ab4f	0.055095013
175	0x3d85b405	0.065284766
176	0xbd293962	-0.04131449
177	0x3d0443c4	0.03229119
178	0xbea1e103	-0.31616983
179	0xbe422746	-0.18960294
180	0x3eabd0a7	0.33557627
181	0xbe09ab18	-0.13444173
182	0x3f061f92	0.5239192
183	0x3ea222aa	0.31667072
184	0xbc39a74e	-0.011331392
185	0x3dca3833	0.098740004
186	0xbe071327	-0.131909
187	0x3d48b033	0.04899616
188	0x3ed98a5e	0.42488378
189	0xbdbfb510	-0.09360707
190	0x3e818af5	0.25301328
191	0x3d5e32e0	0.054247737
192	0x3d2896db	0.041159492
193	0x3c825f63	0.015914625
194	0xbe830add	-0.25594226
195	0x3ac2aaf0	0.0014851969
196	0xbe62e043	-0.22155862
197	0x3e96bb23	0.2943965
198	0xbdba1407	-0.09085851
199	0xbe64a738	-0.22329414
200	0xbec8fa12	-0.39253289
201	0xbe184f84	-0.14874083
202	0x3eb50962	0.3535872
203	0xbcc018c0	-0.023449302
204	0x3e130c53	0.1436017
205	0x3f0e41a5	0.55568916
206	0x3c3fd5f5	0.011708726
207	0xbec4e587	-0.38456365
208	0x3dffee58	0.12496632
209	0xbe523f59	-0.20531978
210	0xbe126aab	-0.14298503
211	0x3e0d35f3	0.13790111
212	0xbddf931e	-0.10916732
213	0xbd88a8e0	-0.06672835
214	0x3c9f7943	0.019467002
215	0xbdc5eb82	-0.0966406
216	0x3e6be618	0.23036993
217	0x3e17c412	0.14820889
218	0x3e28e452	0.16493347
219	0xbd6821d0	-0.05667287
220	0x3dfe5e2b	0.12420305
221	0xbe1bfc0c	-0.15232867
222	0xbe72d83c	-0.237153
223	0xbe3ba108	-0.18323147
224	0xbdaa33b5	-0.083106436
225	0x3d61e056	0.055145584
226	0x3e6da00a	0.23205581
227	0xbdbe6820	-0.09297204
228	0x3e92136d	0.28530446
229	0xbe5a7d4e	-0.21336862
230	0x3e2920d2	0.16516426
231	0xbe7cdaac	-0.24692792
232	0x3de3b683	0.11118796
233	0x3e5532c3	0.20820145
234	0xbe20d7b9	-0.15707292
235	0x3e55f2c9	0.20893396
236	0x3e942e71	0.28941682
237	0x3e1573c4	0.14594942
238	0xbdfb54cd	-0.12272034
239	0xbca014d7	-0.019541187
240	0xbe646b98	-0.22306669
241	0xbdf5debc	-0.12005374
242	0x3dbacbad	0.09120879
243	0xbccb031e	-0.02478176
244	0x3e1317e8	0.14364588
245	0x3c69ceb2	0.014270471
246	0xbec25e2f	-0.3796248
247	0xbe341bee	-0.1758878
248	0x3dde7b5b	0.10863372
249	0x3df3a616	0.11896913
250	0x3e46e71c	0.19424099
251	0x3d9c68bf	0.07637166
252	0x3d4c347f	0.04985475
253	0xbd95f6a7	-0.07322436
254	0x3d04247e	0.032261364
255	0x3eaad873	0.33368263

context_transformer_0/attention/value/einsum/Einsum;StatefulPartitionedCall/context_transformer_0/attention/value/einsum/Einsum3 f4 [32, 32]
0	0xbc85f830	-0.016353697
1	0xbd33496a	-0.043771185
2	0x3d0e14e6	0.0346879
3	0xbd07e7a4	-0.033179894
4	0xbe49d38a	-0.19709602
5	0xbd7d03da	-0.06177125
6	0xbdb31955	-0.08745066
7	0xbb266e7c	-0.0025395444
8	0xbd9904f3	-0.07471647
9	0x3dbfbe4b	0.093624674
10	0xbe63dd38	-0.22252357
11	0xbd1f6cdb	-0.038922172
12	0xbe148f95	-0.14507897
13	0xbde18451	-0.110115655
14	0x3ea16c1d	0.31527796
15	0x3e012f5b	0.12615721
16	0xbd0331dd	-0.032029975
17	0xbe19384e	-0.14962885
18	0x3ec98284	0.39357388
19	0x3e56d0da	0.20978108
20	0xbf385da1	-0.72017866
21	0x3d1496be	0.03627657
22	0xbd25e02f	-0.040497
23	0x3d72f98b	0.059320014
24	0xbdf63c1f	-0.12023186
25	0xbda8f03f	-0.08248948
26	0xbe124db8	-0.1428746
27	0x3e3529c4	0.17691714
28	0x3e8bc689	0.27299908
29	0xbd39ecb7	-0.045391764
30	0xbe2af175	-0.16693671
31	0x3e0b6375	0.13612159
32	0x3d56abc3	0.0524099
33	0xbe5a831d	-0.21339078
34	0xbf1122a0	-0.5669346
35	0x3e783830	0.24240184
36	0xbe06d693	-0.13167791
37	0xbe768a84	-0.24076277
38	0x3e5105e1	0.20412399
39	0x3ea57bf3	0.32321128
40	0xbe997061	-0.2996855
41	0x3e676cb0	0.22600055
42	0xbe9d6232	-0.3073898
43	0xbe126e12	-0.14299801
44	0xbce36b3b	-0.027761092
45	0x3e52a2e8	0.20569956
46	0x3ee7e174	0.45289195
47	0x3de18751	0.11012138
48	0xbcefce5a	-0.0292732
49	0x3ec0dec4	0.37669957
50	0xbc8f6ff3	-0.017509436
51	0xbc69fcf4	-0.0142815
52	0x3ef934eb	0.48673186
53	0xbd99c23f	-0.075077526
54	0x3e8553bd	0.2604045
55	0xbe038a21	-0.12845661
56	0x3a77099f	0.0009423736
57	0x3ca72ca5	0.02040703
58	0xbd938c63	-0.07204511
59	0x3d03973d	0.032126654
60	0xbdb4cced	-0.08828149
61	0xbdb17366	-0.08664589
62	0xbe131028	-0.14361632
63	0xbe8b6eea	-0.27233058
64	0x3bf73621	0.0075442945
65	0x3dc192ff	0.094518654
66	0x3eb6f6bc	0.35735118
67	0x3ecc0d84	0.39854062
68	0xbe0a5dba	-0.13512316
69	0xbcf0a56a	-0.02937575
70	0x3e6b035f	0.22950505
71	0xbe7bad45	-0.24577816
72	0xbdc3636a	-0.09540446
73	0xbe1a33c6	-0.15058812
74	0x3ee23e8e	0.4418835
75	0x3e05138c	0.12995738
76	0xbe2cd748	-0.16878998
77	0x3ee5ef45	0.4490911
78	0x3c0702e2	0.008240433
79	0x3e015c29	0.12632813
80	0x3d2c5fc5	0.04208352
81	0xbea26610	-0.31718493
82	0x3e134211	0.14380671
83	0xbdfefe60	-0.12450862
84	0x3cfc76f1	0.030818434
85	0x3e149a41	0.14511968
86	0xbcb77530	-0.022394747
87	0x3e3ceb7b	0.18449204
88	0xbdd8e298	-0.10590094
89	0x3e5ab415	0.21357758
90	0x3e6a5f4b	0.22887914
91	0xbc2ef218	-0.010677837
92	0xbd52b9ef	-0.05144685
93	0xbaf78aa9	-0.0018885928
94	0xbdc95291	-0.098302014
95	0x3e5d2aef	0.21598409
96	0xbd8c35ec	-0.06846222
97	0xbe098cd0	-0.13432622
98	0x3e61f495	0.22065957
99	0x3e50790e	0.20358679
100	0xbe8e79cf	-0.27827308
101	0xbda1e7a4	-0.0790551
102	0x3e1cea4a	0.15323749
103	0xbd49f8e3	-0.049309622
104	0xbe14d2ef	-0.1453359
105	0x3d23dd4c	0.040005967
106	0x3f0b8664	0.5450194
107	0x3d796eaf	0.06089657
108	0xbd603eb1	-0.054747287
109	0x3e3cfc0b	0.18455522
110	0x3df8cebc	0.121488065
111	0xbcaecf23	-0.021339005
112	0xbd406f4d	-0.046981145
113	0xbed36847	-0.41290495
114	0x3e271d2a	0.16319719
115	0xbe079ee5	-0.13244207
116	0xbe914a46	-0.2837698
117	0xbdacbc4a	-0.08434351
118	0x3e53a5d1	0.20668723
119	0x3ebccf39	0.36876848
120	0x3e2bb41d	0.16767927
121	0xbe62ef6d	-0.22161646
122	0xbd96e9ef	-0.07368838
123	0xbe9d0f1f	-0.306756
124	0xbe1f77be	-0.15573022
125	0x3daad4a1	0.08341337
126	0x3d06b2fd	0.03288554
127	0x3da0109c	0.07815668
128	0x3b2e9d78	0.0026644152
129	0xbd4a38ab	-0.04937045
130	0x3ea13af2	0.31490284
131	0xbdafd58a	-0.08585651
132	0x3e5e44dc	0.21705955
133	0xbe682764	-0.22671276
134	0x3c5b8503	0.013398412
135	0xbd65e12f	-0.056122955
136	0xbdc2c9d6	-0.095111534
137	0x3e1d6f4d	0.15374489
138	0x3e7ba562	0.24574807
139	0x3e57690e	0.21036169
140	0xbe4705ad	-0.19435759
141	0xbd74fc8f	-0.05981117
142	0x3df0828b	0.11743649
143	0x3e8535e3	0.26017675
144	0x3dc1b414	0.09458175
145	0xbe62503b	-0.22100918
146	0x3edbc5d4	0.42924368
147	0x3e7a9534	0.24470979
148	0x3df34657	0.11878651
149	0xbe22fa90	-0.15915895
150	0x3e014709	0.12624754
151	0x3e06e042	0.13171485
152	0x3e3de37f	0.18543814
153	0x3dad6b83	0.08467772
154	0x3d3b5d22	0.045743115
155	0xbf20038e	-0.62505424
156	0xbdc8c977	-0.09804051
157	0x3e8208fc	0.2539748
158	0x3e2d51c8	0.16925728
159	0x3e481c64	0.1954208
160	0xbcdf2636	-0.0272399
161	0xbeee85fd	-0.465866
162	0x3ccce961	0.025013627
163	0x3f015f5d	0.5053614
164	0xbe7bd49e	-0.24592826
165	0x3ddf55ec	0.1090506
166	0xbd49e134	-0.049287036
167	0x3e2145bb	0.15749256
168	0x3e562882	0.2091389
169	0xbd0f5f95	-0.035003264
170	0x3e68d3c5	0.22737034
171	0x3e21a076	0.15783867
172	0x3db47360	0.088110685
173	0x3bb08481	0.0053868894
174	0xbdb6ea82	-0.089314476
175	0x3e7afaa6	0.24509677
176	0x3de9510a	0.1139241
177	0x3e254fd8	0.16143739
178	0xbdf5a489	-0.11994273
179	0x3dc11c9a	0.094292834
180	0x3ea204af	0.31644198
181	0xbd0dc1ca	-0.03460864
182	0xbdf26543	-0.118357204
183	0xbe881072	-0.26575047
184	0xbe4d861e	-0.20070693
185	0xbd85efa0	-0.065398455
186	0x3e382603	0.1798325
187	0xbde5b5a1	-0.112162836
188	0xbea538de	-0.3226995
189	0xbe26f27f	-0.16303442
190	0x3e7969be	0.24356744
191	0x3da4d456	0.08048312
192	0x3e46ccc5	0.19414051
193	0x3e45d880	0.1932087
194	0x3db7a09f	0.08966183
195	0xbf4089a2	-0.7521001
196	0xbde97e6d	-0.11401067
197	0x3e7548a2	0.23953488
198	0x3e3e0504	0.18556601
199	0x3a71da44	0.00092259445
200	0x3e8422dd	0.2580785
201	0xbd2345c9	-0.039861474
202	0xbd46519c	-0.048417673
203	0x3cf006c4	0.029300101
204	0x3c8a8e4f	0.016913561
205	0x3e13d3c9	0.14436258
206	0x3e809acf	0.2511811
207	0x3e1497c3	0.14511018
208	0x3d99d0ba	0.075105146
209	0xbf0530c9	-0.52027565
210	0x3d43274f	0.04764491
211	0x3ce6af7e	0.028159853
212	0xbd969f51	-0.07354606
213	0x3d122af4	0.035685495
214	0xbcd4c138	-0.02597104
215	0x3db87af6	0.09007828
216	0x3ce0afa6	0.027427506
217	0x3d890d03	0.06691935
218	0x3cb4656f	0.022021024
219	0xbdb40933	-0.08790817
220	0x3e9d24e0	0.30692196
221	0x3e84c70e	0.25933117
222	0xbeb80a89	-0.35945538
223	0xbef6ae02	-0.48179632
224	0xbe72e6de	-0.23720881
225	0xbd2f3898	-0.04277858
226	0x3e971edc	0.2951573
227	0x3ec36f1c	0.38170707
228	0xbe483475	-0.19551261
229	0x3d7893c8	0.06068781
230	0xbe79a7e9	-0.24380459
231	0x3d962c2d	0.073326446
232	0x3d5f5b1b	0.054530244
233	0xbe54436f	-0.20728849
234	0x3de28dc7	0.11062198
235	0xbdb1e937	-0.0868706
236	0xbe17c7ca	-0.14822307
237	0xbdb0283b	-0.08601423
238	0xbe52f256	-0.20600256
239	0xbe9e2673	-0.3088871
240	0xbe7cbaf0	-0.24680686
241	0x3e876d50	0.26450586
242	0xbef372ba	-0.47548467
243	0x3dbbaf2f	0.09164273
244	0x3e4f44a0	0.20241022
245	0x3db73b75	0.089468874
246	0x3d0f329c	0.034960374
247	0x3ced8569	0.028994279
248	0x3d8cb779	0.06870932
249	0xbec8bc4e	-0.39206165
250	0xbe77ac4a	-0.24186817
251	0xbd43b836	-0.0477831
252	0xbde6d38f	-0.1127082
253	0x3dbc954c	0.092081636
254	0x3e78a762	0.24282601
255	0xbd9db2a2	-0.07700087

context_transformer_0/kq_shared_bottleneck/dense/einsum/Einsum;StatefulPartitionedCall/context_transformer_0/kq_shared_bottleneck/dense/einsum/Einsum f4 [32, 32]
0	0xbd89d8db	-0.06730815
1	0xbe4cfbad	-0.20017882
2	0xbda5d928	-0.0809806
3	0x3d785909	0.060631786
4	0xbda0c9c9	-0.078509875
5	0xbdb0021b	-0.085941516
6	0xbcb5e877	-0.022205574
7	0x3e2df9b8	0.16989791
8	0xbc6674ea	-0.01406596
9	0xbe32d0ba	-0.17462435
10	0x3e82d4fb	0.25553116
11	0xbe5e6acd	-0.21720429
12	0xbe91b780	-0.28460312
13	0xbee63b66	-0.44967192
14	0xbbfe3803	-0.007758142
15	0xbe17722e	-0.1478965
16	0xbe84ceac	-0.25938928
17	0xbe6de6ba	-0.23232546
18	0x3f095b0e	0.53654563
19	0xbdf81121	-0.12112642
20	0x3e501d36	0.20323643
21	0x3e18e220	0.1493001
22	0xbed72321	-0.4201899
23	0xbdd13729	-0.10215599
24	0xbed226d2	-0.41045243
25	0x3d910a4a	0.070820406
26	0xbd6a63ff	-0.05722427
27	0xbe4e99ee	-0.20175907
28	0x3db77c89	0.089593
29	0x3d166d81	0.036725525
30	0xbec11f63	-0.3771926
31	0x3e0af0e9	0.13568462
32	0xbe0432e4	-0.12910038
33	0x3e38101a	0.17974892
34	0x3e61dc2e	0.22056648
35	0x3f022588	0.5083852
36	0xbdc22802	-0.09480287
37	0x3e18cc08	0.14921582
38	0x3d3d5fe3	0.046234023
39	0x3e41f552	0.18941239
40	0x3e0dfd8d	0.13866253
41	0x3f0e4fa0	0.5559025
42	0xbe3fde10	-0.18737054
43	0x3efb8c0b	0.49130282
44	0x3da0437e	0.07825373
45	0x3d3c5dc8	0.045987874
46	0xbde054bd	-0.109536625
47	0x3e8258d8	0.25458407
48	0xbe2b2a12	-0.16715267
49	0xbd4557db	-0.04817949
50	0xbe08ca16	-0.1335834
51	0x3dddff17	0.1083967
52	0xbee69868	-0.45038152
53	0xbe105941	-0.14096548
54	0x3e0c00ce	0.13672182
55	0xbec94be7	-0.3931572
56	0x3da3a780	0.079909325
57	0xbdefa963	-0.1170223
58	0xbd699f2a	-0.057036556
59	0xbeb2c72a	-0.34917575
60	0xbb46f50d	-0.0030358464
61	0xbdf42b4c	-0.11922321
62	0xbd126914	-0.03574474
63	0xbaacbc79	-0.0013178728
64	0xbddd7e06	-0.10815053
65	0xbe5147b3	-0.20437507
66	0xbc8679e9	-0.016415553
67	0x3eb3539c	0.35024726
68	0xbeeaf49c	-0.45889747
69	0x3f044ccf	0.516797
70	0x3e04e433	0.12977676
71	0x3ddc095e	0.10743974
72	0x3ea12ec4	0.31480992
73	0x3e90141c	0.28140342
74	0xba572006	-0.0008206371
75	0x3f23594c	0.6380813
76	0x3edd5f5d	0.4323682
77	0x3e7168d6	0.23575148
78	0xbe92f0d7	-0.2869937
79	0x3ea4fd4a	0.32224494
80	0x3d2e8a1f	0.04261219
81	0x3d97e4ad	0.07416663
82	0xbde607af	-0.11231934
83	0x3e14e6b5	0.14541133
84	0xbe5dfe1a	-0.21678963
85	0x3d87e257	0.06634968
86	0x3da7745b	0.0817649
87	0x3d412074	0.04715009
88	0xbcf6778c	-0.030086301
89	0xbdbcba04	-0.09215167
90	0xbee27ae1	-0.44234374
91	0xbe280a49	-0.16410173
92	0xbe366b3f	-0.17814349
93	0xbdafa384	-0.0857611
94	0x3dba370e	0.09092532
95	0xbe440d27	-0.19145642
96	0x3d6839fc	0.056695923
97	0x3dbe46a7	0.092908196
98	0xbec4a2c0	-0.38405418
99	0x3f15d33c	0.58525443
100	0x3e19ea81	0.15030862
101	0xbe63d197	-0.22247921
102	0xbd227cad	-0.03966968
103	0xbcdc4089	-0.026886242
104	0x3e0a7702	0.1352196
105	0xbed0fcac	-0.40817773
106	0xbf0ab1cf	-0.54177564
107	0x3e0f8afe	0.14017865
108	0x3d14913f	0.03627133
109	0xbea60361	-0.32424453
110	0x3e2ac5fb	0.16677086
111	0xbe3d1fe7	-0.18469201
112	0xbe97355e	-0.29532903
113	0xbf970f16	-1.1801479
114	0x3e14b0c1	0.14520551
115	0xbe9edeea	-0.31029445
116	0x3dc2d3a2	0.09513022
117	0x3dfef6a3	0.12449386
118	0x3e44de74	0.19225484
119	0xbe80245c	-0.2502774
120	0xbdf749a3	-0.12074592
121	0x3e87e5a5	0.26542392
122	0xbdf62682	-0.120190635
123	0x3e71bb4f	0.23606609
124	0xbe8fbd33	-0.28074035
125	0x3e32c59e	0.17458197
126	0xbe82d7f4	-0.25555384
127	0x3dcb14fd	0.099161126
128	0x3e69cc7b	0.2283191
129	0xbe6da473	-0.23207264
130	0x3ecae4fc	0.39627826
131	0xbdfafe3e	-0.12255524
132	0xbcf1b789	-0.029506462
133	0xbe8b040a	-0.2715152
134	0xbde33922	-0.110948816
135	0x3e6177b0	0.22018313
136	0xbec2258a	-0.37919265
137	0xbe7b1cab	-0.24522655
138	0x3e70c516	0.23512682
139	0xbdb18252	-0.08667435
140	0x3da1afa3	0.07894828
141	0x3e40c440	0.18824863
142	0x3e9afdf2	0.3027187
143	0x3c9d4175	0.019196251
144	0x3deea8f2	0.116533175
145	0x3e802783	0.25030145
146	0xbf0795d2	-0.5296298
147	0x3e27c84b	0.16385
148	0xbc9ecfaa	-0.019386131
149	0xbe8a02f9	-0.26955393
150	0xbe6e8bbd	-0.23295493
151	0x3f00a63a	0.5025364
152	0xbeca2b80	-0.39486313
153	0x3e0b4b72	0.13602999
154	0x3e5986ca	0.21242824
155	0x3e74c90f	0.23904823
156	0x3eca52fb	0.39516434
157	0xbd021b05	-0.03176405
158	0xbeb22578	-0.3479421
159	0x3e67c66a	0.22634283
160	0xbd82bb9d	-0.06383441
161	0x3e8a5884	0.27020657
162	0x3e2bf54b	0.1679279
163	0xbd5eeb10	-0.05442339
164	0x3e0936aa	0.13399759
165	0xbe1fd7f9	-0.15609731
166	0x3d161fc4	0.036651388
167	0x3d17ae44	0.037031427
168	0x3b277148	0.0025549699
169	0x3e0521ce	0.13001177
170	0xbec5c096	-0.38623494
171	0x3ebbbd8c	0.3666805
172	0x3ecff6db	0.40618023
173	0x3e6b1a82	0.2295933
174	0xbb434c44	-0.0029800097
175	0x3e41f39a	0.18940583
176	0x3dce1627	0.10062819
177	0x3d00facc	0.03148918
178	0xbf07bae9	-0.5301958
179	0x3e47b2f2	0.19501856
180	0xbe809af6	-0.25118226
181	0xbddc3bd0	-0.10753596
182	0x3ec535e7	0.38517687
183	0xbe15ff26	-0.14648113
184	0x3ee09787	0.43865606
185	0x3e19d1f9	0.15021504
186	0x3da135e1	0.07871605
187	0x3eac6257	0.33668777
188	0x3d382c3e	0.044964068
189	0x3e147496	0.14497599
190	0x3f06ab67	0.5260529
191	0xbdf73870	-0.120713115
192	0x3dd8ff06	0.10595517
193	0xbe740a6c	-0.238321
194	0xbd2c080e	-0.04199987
195	0x3ecffda0	0.40623188
196	0xbe5c8eb5	-0.21538813
197	0xbc45dd30	-0.012076661
198	0xbd6e7dbb	-0.058225375
199	0x3e792eda	0.24334279
200	0x3cc9ebb8	0.024648532
201	0xbde42a58	-0.11140889
202	0xbe91434f	-0.28371665
203	0x3ed15652	0.4088617
204	0x3eba99bb	0.36445412
205	0xbe9a4152	-0.3012796
206	0x3e2d6629	0.16933502
207	0xbe009693	-0.1255744
208	0xbdef8f98	-0.1169731
209	0xbef33b5f	-0.47506234
210	0xbc8c883a	-0.017154802
211	0xbeb36ebd	-0.35045424
212	0xbe01964c	-0.1265499
213	0x3e91dd32	0.2848907
214	0x3e892588	0.26786447
215	0x3b9f44ae	0.004860482
216	0xbd849dd2	-0.06475414
217	0x3e080d6b	0.13286369
218	0xbe471fb7	-0.19445692
219	0x3dbd0cd9	0.09230966
220	0xbcd44eb8	-0.025916442
221	0x3e64791a	0.22311822
222	0x3d20cb6f	0.03925651
223	0x3e11b227	0.14228116
224	0xbcb0a821	-0.021564545
225	0xbc69b26c	-0.0142637305
226	0x3bb4ae55	0.005513946
227	0x3dbaa73d	0.091139294
228	0x3e8e3eab	0.27782187
229	0xbef06692	-0.46953255
230	0x3e4ecf7a	0.20196334
231	0x3e397d0f	0.18114112
232	0xbe05efae	-0.13079712
233	0x3dbf6f27	0.093473725
234	0xbe401678	-0.18758571
235	0xbd8319b9	-0.064013906
236	0xbeb4c322	-0.35305125
237	0xbecbeb49	-0.39827946
238	0xb9186825	-0.00014534646
239	0x3d44a60a	0.04800991
240	0xbe895d7e	-0.2682914
241	0x3e15d8ab	0.14633434
242	0x3c2ef164	0.010677669
243	0xbe32bd8f	-0.17455123
244	0xbec256ff	-0.37956998
245	0xbd8972d4	-0.06711355
246	0xbe5b7ed2	-0.21435097
247	0xbefda891	-0.49542668
248	0xbdf3c185	-0.11902145
249	0x3e51800b	0.20459001
250	0x3eecbe08	0.46238732
251	0xbe76ecc5	-0.24113758
252	0x3e5b081b	0.2138981
253	0x3ddc870b	0.10767945
254	0x3c8c1c9c	0.017103486
255	0x3e680ba4	0.2266069
